name: "AlexNet"
layer {
  name: "data"
  type: "EvalData"
  top: "data"
  top: "gt_boxes"
  top: "image_sizes"
  transform_param {
    mean_value: 104
    mean_value: 117
    mean_value: 123
  }
  eval_data_param {
    root_folder: "/your/path/to/VOCdevkit/"
    source: "../../../data/voc/window_file_voc07_test.txt"
    batch_size: 1
    short_size: 600
    long_size: 1000
  }
}
layer {
  name: "conv1"
  type: "Convolution"
  bottom: "data"
  top: "conv1"
  param {
    lr_mult: 1
    decay_mult: 1
  }
  param {
    lr_mult: 2
    decay_mult: 0
  }
  convolution_param {
    num_output: 96
    kernel_size: 11
    pad: 5
    stride: 4
  }
}
layer {
  name: "relu1"
  type: "ReLU"
  bottom: "conv1"
  top: "conv1"
}
layer {
  name: "norm1"
  type: "LRN"
  bottom: "conv1"
  top: "norm1"
  lrn_param {
    local_size: 5
    alpha: 0.0001
    beta: 0.75
  }
}
layer {
  name: "pool1"
  type: "Pooling"
  bottom: "norm1"
  top: "pool1"
  pooling_param {
    pool: MAX
    kernel_size: 3
    stride: 2
  }
}
layer {
  name: "conv2"
  type: "Convolution"
  bottom: "pool1"
  top: "conv2"
  param {
    lr_mult: 1
    decay_mult: 1
  }
  param {
    lr_mult: 2
    decay_mult: 0
  }
  convolution_param {
    num_output: 256
    pad: 2
    kernel_size: 5
    group: 2
  }
}
layer {
  name: "relu2"
  type: "ReLU"
  bottom: "conv2"
  top: "conv2"
}
layer {
  name: "norm2"
  type: "LRN"
  bottom: "conv2"
  top: "norm2"
  lrn_param {
    local_size: 5
    alpha: 0.0001
    beta: 0.75
  }
}
layer {
  name: "pool2"
  type: "Pooling"
  bottom: "norm2"
  top: "pool2"
  pooling_param {
    pool: MAX
    kernel_size: 2
    stride: 2
  }
}
layer {
  name: "conv3"
  type: "Convolution"
  bottom: "pool2"
  top: "conv3"
  param {
    lr_mult: 1
    decay_mult: 1
  }
  param {
    lr_mult: 2
    decay_mult: 0
  }
  convolution_param {
    num_output: 384
    pad: 1
    kernel_size: 3
  }
}
layer {
  name: "relu3"
  type: "ReLU"
  bottom: "conv3"
  top: "conv3"
}
layer {
  name: "conv4"
  type: "Convolution"
  bottom: "conv3"
  top: "conv4"
  param {
    lr_mult: 1
    decay_mult: 1
  }
  param {
    lr_mult: 2
    decay_mult: 0
  }
  convolution_param {
    num_output: 384
    pad: 1
    kernel_size: 3
    group: 2
  }
}
layer {
  name: "relu4"
  type: "ReLU"
  bottom: "conv4"
  top: "conv4"
}
layer {
  name: "conv5"
  type: "Convolution"
  bottom: "conv4"
  top: "conv5"
  param {
    lr_mult: 1
    decay_mult: 1
  }
  param {
    lr_mult: 2
    decay_mult: 0
  }
  convolution_param {
    num_output: 256
    pad: 1
    kernel_size: 3
    group: 2
  }
}
layer {
  name: "relu5"
  type: "ReLU"
  bottom: "conv5"
  top: "conv5"
}

#========================== rpn ===============================
layer {
  name: "rpn_conv"
  type: "Convolution"
  bottom: "conv5"
  top: "rpn_conv"
  param { lr_mult: 1.0 }
  param { lr_mult: 2.0 }
  convolution_param {
    num_output: 512
    kernel_size: 3 pad: 1 stride: 1
    weight_filler { type: "gaussian" std: 0.01 }
    bias_filler { type: "constant" value: 0 }
  }
}
layer {
  name: "rpn_relu"
  type: "ReLU"
  bottom: "rpn_conv"
  top: "rpn_conv"
}
layer {
  name: "rpn_cls"
  type: "Convolution"
  bottom: "rpn_conv"
  top: "rpn_cls"
  param {
    lr_mult: 1
    decay_mult: 1
  }
  param {
    lr_mult: 2
    decay_mult: 0
  }
  convolution_param {
    num_output: 18
    pad: 0
    kernel_size: 1
    weight_filler {
      type: "gaussian"
      std: 0.01
    }
    bias_filler {
      type: "constant"
    }
  }
}
layer {
  name: "rpn_cls_reshape"
  bottom: "rpn_cls"
  top: "rpn_cls_reshape"
  type: "Reshape"
  reshape_param { 
    shape { dim: -1 dim: 2 dim: 0 dim: 0 } 
  }
}
layer {
  name: "rpn_bbox"
  type: "Convolution"
  bottom: "rpn_conv"
  top: "rpn_bbox"
  param {
    lr_mult: 1
    decay_mult: 1
  }
  param {
    lr_mult: 2
    decay_mult: 0
  }
  convolution_param {
    num_output: 36
    pad: 0
    kernel_size: 1
    weight_filler {
      type: "gaussian"
      std: 0.001
    }
    bias_filler {
      type: "constant"
    }
  }
}
layer {
  name: "rpn_bbox_reshape"
  bottom: "rpn_bbox"
  top: "rpn_bbox_reshape"
  type: "Reshape"
  reshape_param { 
    shape { dim: -1 dim: 4 dim: 0 dim: 0 } 
  }
}

#=================== proposal ======================
layer {
  name: "rpn_prob_reshape"
  type: "Softmax"
  bottom: "rpn_cls_reshape"
  top: "rpn_prob_reshape"
  softmax_param {
    axis: 1
  }
}
layer {
  name: "proposals"
  type: "BoxGroupOutput"
  bottom: "rpn_prob_reshape"
  bottom: "rpn_bbox_reshape"
  top: "proposals"
  box_group_output_param {
    fg_thr: 0.05
    iou_thr: 0.7
    nms_type: "IOU"
    box_group_param {
      field_w: 176
      field_w: 88
      field_w: 128
      field_w: 352
      field_w: 176
      field_w: 256
      field_w: 704
      field_w: 352
      field_w: 512
      field_h: 88
      field_h: 176
      field_h: 128
      field_h: 176
      field_h: 352
      field_h: 256
      field_h: 352
      field_h: 704
      field_h: 512
      stride: 16
    }
    field_whr: 8
    field_xyr: 1
    max_nms_num: 5000
    max_post_nms_num: 300
  }
  propagate_down: 0
  propagate_down: 0
}
#=================== RCNN ======================
layer {
  name: "roi_pool"
  type: "ROIPooling"
  bottom: "conv5"
  bottom: "proposals"
  top: "roi_pool"
  roi_pooling_param {
    pooled_w: 6
    pooled_h: 6
    spatial_scale: 0.0625 # 1/16
    pad_ratio: 0
  }
  propagate_down: 1
  propagate_down: 0
}
layer {
  name: "fc6"
  type: "InnerProduct"
  bottom: "roi_pool"
  top: "fc6"
  param {
    name: "fc6_w"
    lr_mult: 1
  }
  param {
    name: "fc6_b"
    lr_mult: 2
  }
  inner_product_param {
    num_output: 2048
    weight_filler {
      type: "gaussian"
      std: 0.001
    }
    bias_filler {
      type: "constant"
      value: 0
    }
  }
}
layer {
  name: "relu6"
  type: "ReLU"
  bottom: "fc6"
  top: "fc6"
}
layer {
  name: "fc7"
  type: "InnerProduct"
  bottom: "fc6"
  top: "fc7"
  param {
    name: "fc7_w"
    lr_mult: 1
  }
  param {
    name: "fc7_b"
    lr_mult: 2
  }
  inner_product_param {
    num_output: 2048
    weight_filler {
      type: "gaussian"
      std: 0.001
    }
    bias_filler {
      type: "constant"
      value: 0
    }
  }
}
layer {
  name: "relu7"
  type: "ReLU"
  bottom: "fc7"
  top: "fc7"
}
layer {
  name: "cls_pred"
  type: "InnerProduct"
  bottom: "fc7"
  top: "cls_pred"
  param {
    name: "cls_pred_w"
    lr_mult: 1
  }
  param {
    name: "cls_pred_b"
    lr_mult: 2
  }
  inner_product_param {
    num_output: 21
    weight_filler {
      type: "gaussian"
      std: 0.01
    }
    bias_filler {
      type: "constant"
      value: 0
    }
  }
}
layer {
  name: "bbox_pred"
  type: "InnerProduct"
  bottom: "fc7"
  top: "bbox_pred"
  param {
    lr_mult: 1
  }
  param {
    lr_mult: 2
  }
  inner_product_param {
    num_output: 8
    weight_filler {
      type: "gaussian"
      std: 0.001
    }
    bias_filler {
      type: "constant"
      value: 0
    }
  }
}

#=================== second stage ======================
layer {
  name: "proposals_2nd"
  type: "DecodeBBox"
  bottom: "bbox_pred"
  bottom: "proposals"
  top: "proposals_2nd"
  bbox_reg_param {
    bbox_mean: 0 bbox_mean: 0 bbox_mean: 0 bbox_mean: 0
    bbox_std: 0.1 bbox_std: 0.1 bbox_std: 0.2 bbox_std: 0.2
  }
  propagate_down: 0
  propagate_down: 0
}

#=================== RCNN ======================
layer {
  name: "roi_pool_2nd"
  type: "ROIPooling"
  bottom: "conv5"
  bottom: "proposals_2nd"
  top: "roi_pool_2nd"
  roi_pooling_param {
    pooled_w: 6
    pooled_h: 6
    spatial_scale: 0.0625 # 1/16
    pad_ratio: 0
  }
  propagate_down: 1
  propagate_down: 0
}

layer {
  name: "fc6_1st_2nd"
  type: "InnerProduct"
  bottom: "roi_pool_2nd"
  top: "fc6_1st_2nd"
  param {
    name: "fc6_w"
    lr_mult: 1
  }
  param {
    name: "fc6_b"
    lr_mult: 2
  }
  inner_product_param {
    num_output: 2048
    weight_filler {
      type: "gaussian"
      std: 0.001
    }
    bias_filler {
      type: "constant"
      value: 0
    }
  }
}
layer {
  name: "relu6_1st_2nd"
  type: "ReLU"
  bottom: "fc6_1st_2nd"
  top: "fc6_1st_2nd"
}
layer {
  name: "fc7_1st_2nd"
  type: "InnerProduct"
  bottom: "fc6_1st_2nd"
  top: "fc7_1st_2nd"
  param {
    name: "fc7_w"
    lr_mult: 1
  }
  param {
    name: "fc7_b"
    lr_mult: 2
  }
  inner_product_param {
    num_output: 2048
    weight_filler {
      type: "gaussian"
      std: 0.001
    }
    bias_filler {
      type: "constant"
      value: 0
    }
  }
}
layer {
  name: "relu7_1st_2nd"
  type: "ReLU"
  bottom: "fc7_1st_2nd"
  top: "fc7_1st_2nd"
}
layer {
  name: "cls_pred_1st_2nd"
  type: "InnerProduct"
  bottom: "fc7_1st_2nd"
  top: "cls_pred_1st_2nd"
  param {
    name: "cls_pred_w"
    lr_mult: 1
  }
  param {
    name: "cls_pred_b"
    lr_mult: 2
  }
  inner_product_param {
    num_output: 21
    weight_filler {
      type: "gaussian"
      std: 0.01
    }
    bias_filler {
      type: "constant"
      value: 0
    }
  }
}

layer {
  name: "fc6_2nd"
  type: "InnerProduct"
  bottom: "roi_pool_2nd"
  top: "fc6_2nd"
  param {
    name: "fc6_2nd_w"
    lr_mult: 1
  }
  param {
    name: "fc6_2nd_b"
    lr_mult: 2
  }
  inner_product_param {
    num_output: 2048
    weight_filler {
      type: "gaussian"
      std: 0.001
    }
    bias_filler {
      type: "constant"
      value: 0
    }
  }
}
layer {
  name: "relu6_2nd"
  type: "ReLU"
  bottom: "fc6_2nd"
  top: "fc6_2nd"
}
layer {
  name: "fc7_2nd"
  type: "InnerProduct"
  bottom: "fc6_2nd"
  top: "fc7_2nd"
  param {
    name: "fc7_2nd_w"
    lr_mult: 1
  }
  param {
    name: "fc7_2nd_b"
    lr_mult: 2
  }
  inner_product_param {
    num_output: 2048
    weight_filler {
      type: "gaussian"
      std: 0.001
    }
    bias_filler {
      type: "constant"
      value: 0
    }
  }
}
layer {
  name: "relu7_2nd"
  type: "ReLU"
  bottom: "fc7_2nd"
  top: "fc7_2nd"
}
layer {
  name: "cls_pred_2nd"
  type: "InnerProduct"
  bottom: "fc7_2nd"
  top: "cls_pred_2nd"
  param {
    name: "cls_pred_2nd_w"
    lr_mult: 1
  }
  param {
    name: "cls_pred_2nd_b"
    lr_mult: 2
  }
  inner_product_param {
    num_output: 21
    weight_filler {
      type: "gaussian"
      std: 0.01
    }
    bias_filler {
      type: "constant"
      value: 0
    }
  }
}
layer {
  name: "bbox_pred_2nd"
  type: "InnerProduct"
  bottom: "fc7_2nd"
  top: "bbox_pred_2nd"
  param {
    lr_mult: 1
  }
  param {
    lr_mult: 2
  }
  inner_product_param {
    num_output: 8
    weight_filler {
      type: "gaussian"
      std: 0.001
    }
    bias_filler {
      type: "constant"
      value: 0
    }
  }
}

#=================== 3rd stage ======================
layer {
  name: "proposals_3rd"
  type: "DecodeBBox"
  bottom: "bbox_pred_2nd"
  bottom: "proposals_2nd"
  top: "proposals_3rd"
  bbox_reg_param {
    bbox_mean: 0 bbox_mean: 0 bbox_mean: 0 bbox_mean: 0
    bbox_std: 0.05 bbox_std: 0.05 bbox_std: 0.1 bbox_std: 0.1
  }
  propagate_down: 0
  propagate_down: 0
}

#=================== RCNN ======================
layer {
  name: "roi_pool_3rd"
  type: "ROIPooling"
  bottom: "conv5"
  bottom: "proposals_3rd"
  top: "roi_pool_3rd"
  roi_pooling_param {
    pooled_w: 6
    pooled_h: 6
    spatial_scale: 0.0625 # 1/16
    pad_ratio: 0
  }
  propagate_down: 1
  propagate_down: 0
}

layer {
  name: "fc6_1st_3rd"
  type: "InnerProduct"
  bottom: "roi_pool_3rd"
  top: "fc6_1st_3rd"
  param {
    name: "fc6_w"
    lr_mult: 1
  }
  param {
    name: "fc6_b"
    lr_mult: 2
  }
  inner_product_param {
    num_output: 2048
    weight_filler {
      type: "gaussian"
      std: 0.001
    }
    bias_filler {
      type: "constant"
      value: 0
    }
  }
}
layer {
  name: "relu6_1st_3rd"
  type: "ReLU"
  bottom: "fc6_1st_3rd"
  top: "fc6_1st_3rd"
}
layer {
  name: "fc7_1st_3rd"
  type: "InnerProduct"
  bottom: "fc6_1st_3rd"
  top: "fc7_1st_3rd"
  param {
    name: "fc7_w"
    lr_mult: 1
  }
  param {
    name: "fc7_b"
    lr_mult: 2
  }
  inner_product_param {
    num_output: 2048
    weight_filler {
      type: "gaussian"
      std: 0.001
    }
    bias_filler {
      type: "constant"
      value: 0
    }
  }
}
layer {
  name: "relu7_1st_3rd"
  type: "ReLU"
  bottom: "fc7_1st_3rd"
  top: "fc7_1st_3rd"
}
layer {
  name: "cls_pred_1st_3rd"
  type: "InnerProduct"
  bottom: "fc7_1st_3rd"
  top: "cls_pred_1st_3rd"
  param {
    name: "cls_pred_w"
    lr_mult: 1
  }
  param {
    name: "cls_pred_b"
    lr_mult: 2
  }
  inner_product_param {
    num_output: 21
    weight_filler {
      type: "gaussian"
      std: 0.01
    }
    bias_filler {
      type: "constant"
      value: 0
    }
  }
}

layer {
  name: "fc6_2nd_3rd"
  type: "InnerProduct"
  bottom: "roi_pool_3rd"
  top: "fc6_2nd_3rd"
  param {
    name: "fc6_2nd_w"
    lr_mult: 1
  }
  param {
    name: "fc6_2nd_b"
    lr_mult: 2
  }
  inner_product_param {
    num_output: 2048
    weight_filler {
      type: "gaussian"
      std: 0.001
    }
    bias_filler {
      type: "constant"
      value: 0
    }
  }
}
layer {
  name: "relu6_2nd_3rd"
  type: "ReLU"
  bottom: "fc6_2nd_3rd"
  top: "fc6_2nd_3rd"
}
layer {
  name: "fc7_2nd_3rd"
  type: "InnerProduct"
  bottom: "fc6_2nd_3rd"
  top: "fc7_2nd_3rd"
  param {
    name: "fc7_2nd_w"
    lr_mult: 1
  }
  param {
    name: "fc7_2nd_b"
    lr_mult: 2
  }
  inner_product_param {
    num_output: 2048
    weight_filler {
      type: "gaussian"
      std: 0.001
    }
    bias_filler {
      type: "constant"
      value: 0
    }
  }
}
layer {
  name: "relu7_2nd_3rd"
  type: "ReLU"
  bottom: "fc7_2nd_3rd"
  top: "fc7_2nd_3rd"
}
layer {
  name: "cls_pred_2nd_3rd"
  type: "InnerProduct"
  bottom: "fc7_2nd_3rd"
  top: "cls_pred_2nd_3rd"
  param {
    name: "cls_pred_2nd_w"
    lr_mult: 1
  }
  param {
    name: "cls_pred_2nd_b"
    lr_mult: 2
  }
  inner_product_param {
    num_output: 21
    weight_filler {
      type: "gaussian"
      std: 0.01
    }
    bias_filler {
      type: "constant"
      value: 0
    }
  }
}

layer {
  name: "fc6_3rd"
  type: "InnerProduct"
  bottom: "roi_pool_3rd"
  top: "fc6_3rd"
  param {
    lr_mult: 1
  }
  param {
    lr_mult: 2
  }
  inner_product_param {
    num_output: 2048
    weight_filler {
      type: "gaussian"
      std: 0.001
    }
    bias_filler {
      type: "constant"
      value: 0
    }
  }
}
layer {
  name: "relu6_3rd"
  type: "ReLU"
  bottom: "fc6_3rd"
  top: "fc6_3rd"
}
layer {
  name: "fc7_3rd"
  type: "InnerProduct"
  bottom: "fc6_3rd"
  top: "fc7_3rd"
  param {
    lr_mult: 1
  }
  param {
    lr_mult: 2
  }
  inner_product_param {
    num_output: 2048
    weight_filler {
      type: "gaussian"
      std: 0.001
    }
    bias_filler {
      type: "constant"
      value: 0
    }
  }
}
layer {
  name: "relu7_3rd"
  type: "ReLU"
  bottom: "fc7_3rd"
  top: "fc7_3rd"
}
layer {
  name: "cls_pred_3rd"
  type: "InnerProduct"
  bottom: "fc7_3rd"
  top: "cls_pred_3rd"
  param {
    lr_mult: 1
  }
  param {
    lr_mult: 2
  }
  inner_product_param {
    num_output: 21
    weight_filler {
      type: "gaussian"
      std: 0.01
    }
    bias_filler {
      type: "constant"
      value: 0
    }
  }
}
layer {
  name: "bbox_pred_3rd"
  type: "InnerProduct"
  bottom: "fc7_3rd"
  top: "bbox_pred_3rd"
  param {
    lr_mult: 1
  }
  param {
    lr_mult: 2
  }
  inner_product_param {
    num_output: 8
    weight_filler {
      type: "gaussian"
      std: 0.001
    }
    bias_filler {
      type: "constant"
      value: 0
    }
  }
}

#-----------------------output------------------------

#-----------------------1st------------------------
layer {
  name: "cls_prob"
  type: "Softmax"
  bottom: "cls_pred"
  top: "cls_prob"
  softmax_param {
    axis: 1
  }
}
layer {
  name: "frcnn_out_1st"
  type: "FrcnnOutput"
  bottom: "cls_prob"
  bottom: "bbox_pred"
  bottom: "proposals"
  bottom: "image_sizes"
  top: "frcnn_out_1st"
  include {
    phase: TEST
  }
  frcnn_output_param {
    conf_thr: 0.01
    iou_thr: 0.3
    nms_type: "IOU"
    max_det_num: 100
  }
  bbox_reg_param {
    cls_aware: false
    bbox_mean: 0 bbox_mean: 0 bbox_mean: 0 bbox_mean: 0
    bbox_std: 0.1 bbox_std: 0.1 bbox_std: 0.2 bbox_std: 0.2
  }
}
layer {
  name: "detection_eval_1st_05"
  type: "DetectionEvaluate"
  bottom: "frcnn_out_1st"
  bottom: "gt_boxes"
  bottom: "image_sizes"
  top: "detection_eval_1st_05"
  include {
    phase: TEST
  }
  detection_evaluate_param {
    num_classes: 21
    overlap_threshold: 0.5
    evaluate_difficult_gt: false
    name_size_file: "../../../data/voc/voc07_test_name_size.txt"
  }
}
layer {
  name: "detection_eval_1st_06"
  type: "DetectionEvaluate"
  bottom: "frcnn_out_1st"
  bottom: "gt_boxes"
  bottom: "image_sizes"
  top: "detection_eval_1st_06"
  include {
    phase: TEST
  }
  detection_evaluate_param {
    num_classes: 21
    overlap_threshold: 0.6
    evaluate_difficult_gt: false
    name_size_file: "../../../data/voc/voc07_test_name_size.txt"
  }
}
layer {
  name: "detection_eval_1st_07"
  type: "DetectionEvaluate"
  bottom: "frcnn_out_1st"
  bottom: "gt_boxes"
  bottom: "image_sizes"
  top: "detection_eval_1st_07"
  include {
    phase: TEST
  }
  detection_evaluate_param {
    num_classes: 21
    overlap_threshold: 0.7
    evaluate_difficult_gt: false
    name_size_file: "../../../data/voc/voc07_test_name_size.txt"
  }
}
layer {
  name: "detection_eval_1st_08"
  type: "DetectionEvaluate"
  bottom: "frcnn_out_1st"
  bottom: "gt_boxes"
  bottom: "image_sizes"
  top: "detection_eval_1st_08"
  include {
    phase: TEST
  }
  detection_evaluate_param {
    num_classes: 21
    overlap_threshold: 0.8
    evaluate_difficult_gt: false
    name_size_file: "../../../data/voc/voc07_test_name_size.txt"
  }
}
layer {
  name: "detection_eval_1st_09"
  type: "DetectionEvaluate"
  bottom: "frcnn_out_1st"
  bottom: "gt_boxes"
  bottom: "image_sizes"
  top: "detection_eval_1st_09"
  include {
    phase: TEST
  }
  detection_evaluate_param {
    num_classes: 21
    overlap_threshold: 0.9
    evaluate_difficult_gt: false
    name_size_file: "../../../data/voc/voc07_test_name_size.txt"
  }
}

#-----------------------2nd------------------------
layer {
  name: "cls_prob_2nd"
  type: "Softmax"
  bottom: "cls_pred_2nd"
  top: "cls_prob_2nd"
  softmax_param {
    axis: 1
  }
}
layer {
  name: "frcnn_out_2nd"
  type: "FrcnnOutput"
  bottom: "cls_prob_2nd"
  bottom: "bbox_pred_2nd"
  bottom: "proposals_2nd"
  bottom: "image_sizes"
  top: "frcnn_out_2nd"
  include {
    phase: TEST
  }
  frcnn_output_param {
    conf_thr: 0.01
    iou_thr: 0.3
    nms_type: "IOU"
    max_det_num: 100
  }
  bbox_reg_param {
    cls_aware: false
    bbox_mean: 0 bbox_mean: 0 bbox_mean: 0 bbox_mean: 0
    bbox_std: 0.05 bbox_std: 0.05 bbox_std: 0.1 bbox_std: 0.1
  }
}
layer {
  name: "detection_eval_2nd_05"
  type: "DetectionEvaluate"
  bottom: "frcnn_out_2nd"
  bottom: "gt_boxes"
  bottom: "image_sizes"
  top: "detection_eval_2nd_05"
  include {
    phase: TEST
  }
  detection_evaluate_param {
    num_classes: 21
    overlap_threshold: 0.5
    evaluate_difficult_gt: false
    name_size_file: "../../../data/voc/voc07_test_name_size.txt"
  }
}
layer {
  name: "detection_eval_2nd_06"
  type: "DetectionEvaluate"
  bottom: "frcnn_out_2nd"
  bottom: "gt_boxes"
  bottom: "image_sizes"
  top: "detection_eval_2nd_06"
  include {
    phase: TEST
  }
  detection_evaluate_param {
    num_classes: 21
    overlap_threshold: 0.6
    evaluate_difficult_gt: false
    name_size_file: "../../../data/voc/voc07_test_name_size.txt"
  }
}
layer {
  name: "detection_eval_2nd_07"
  type: "DetectionEvaluate"
  bottom: "frcnn_out_2nd"
  bottom: "gt_boxes"
  bottom: "image_sizes"
  top: "detection_eval_2nd_07"
  include {
    phase: TEST
  }
  detection_evaluate_param {
    num_classes: 21
    overlap_threshold: 0.7
    evaluate_difficult_gt: false
    name_size_file: "../../../data/voc/voc07_test_name_size.txt"
  }
}
layer {
  name: "detection_eval_2nd_08"
  type: "DetectionEvaluate"
  bottom: "frcnn_out_2nd"
  bottom: "gt_boxes"
  bottom: "image_sizes"
  top: "detection_eval_2nd_08"
  include {
    phase: TEST
  }
  detection_evaluate_param {
    num_classes: 21
    overlap_threshold: 0.8
    evaluate_difficult_gt: false
    name_size_file: "../../../data/voc/voc07_test_name_size.txt"
  }
}
layer {
  name: "detection_eval_2nd_09"
  type: "DetectionEvaluate"
  bottom: "frcnn_out_2nd"
  bottom: "gt_boxes"
  bottom: "image_sizes"
  top: "detection_eval_2nd_09"
  include {
    phase: TEST
  }
  detection_evaluate_param {
    num_classes: 21
    overlap_threshold: 0.9
    evaluate_difficult_gt: false
    name_size_file: "../../../data/voc/voc07_test_name_size.txt"
  }
}

#-----------------------2nd-avg------------------------
layer {
  name: "cls_prob_1st_2nd"
  type: "Softmax"
  bottom: "cls_pred_1st_2nd"
  top: "cls_prob_1st_2nd"
  softmax_param {
    axis: 1
  }
}
layer {
  name: "cls_prob_2nd_avg"
  type: "Eltwise"
  bottom: "cls_prob_1st_2nd"
  bottom: "cls_prob_2nd"
  top: "cls_prob_2nd_avg"
  eltwise_param {
    operation: SUM
    coeff: 0.5
    coeff: 0.5
  }
}
layer {
  name: "frcnn_out_2nd_avg"
  type: "FrcnnOutput"
  bottom: "cls_prob_2nd_avg"
  bottom: "bbox_pred_2nd"
  bottom: "proposals_2nd"
  bottom: "image_sizes"
  top: "frcnn_out_2nd_avg"
  include {
    phase: TEST
  }
  frcnn_output_param {
    conf_thr: 0.01
    iou_thr: 0.3
    nms_type: "IOU"
    max_det_num: 100
  }
  bbox_reg_param {
    cls_aware: false
    bbox_mean: 0 bbox_mean: 0 bbox_mean: 0 bbox_mean: 0
    bbox_std: 0.05 bbox_std: 0.05 bbox_std: 0.1 bbox_std: 0.1
  }
}
layer {
  name: "detection_eval_2nd_avg_05"
  type: "DetectionEvaluate"
  bottom: "frcnn_out_2nd_avg"
  bottom: "gt_boxes"
  bottom: "image_sizes"
  top: "detection_eval_2nd_avg_05"
  include {
    phase: TEST
  }
  detection_evaluate_param {
    num_classes: 21
    overlap_threshold: 0.5
    evaluate_difficult_gt: false
    name_size_file: "../../../data/voc/voc07_test_name_size.txt"
  }
}
layer {
  name: "detection_eval_2nd_avg_06"
  type: "DetectionEvaluate"
  bottom: "frcnn_out_2nd_avg"
  bottom: "gt_boxes"
  bottom: "image_sizes"
  top: "detection_eval_2nd_avg_06"
  include {
    phase: TEST
  }
  detection_evaluate_param {
    num_classes: 21
    overlap_threshold: 0.6
    evaluate_difficult_gt: false
    name_size_file: "../../../data/voc/voc07_test_name_size.txt"
  }
}
layer {
  name: "detection_eval_2nd_avg_07"
  type: "DetectionEvaluate"
  bottom: "frcnn_out_2nd_avg"
  bottom: "gt_boxes"
  bottom: "image_sizes"
  top: "detection_eval_2nd_avg_07"
  include {
    phase: TEST
  }
  detection_evaluate_param {
    num_classes: 21
    overlap_threshold: 0.7
    evaluate_difficult_gt: false
    name_size_file: "../../../data/voc/voc07_test_name_size.txt"
  }
}
layer {
  name: "detection_eval_2nd_avg_08"
  type: "DetectionEvaluate"
  bottom: "frcnn_out_2nd_avg"
  bottom: "gt_boxes"
  bottom: "image_sizes"
  top: "detection_eval_2nd_avg_08"
  include {
    phase: TEST
  }
  detection_evaluate_param {
    num_classes: 21
    overlap_threshold: 0.8
    evaluate_difficult_gt: false
    name_size_file: "../../../data/voc/voc07_test_name_size.txt"
  }
}
layer {
  name: "detection_eval_2nd_avg_09"
  type: "DetectionEvaluate"
  bottom: "frcnn_out_2nd_avg"
  bottom: "gt_boxes"
  bottom: "image_sizes"
  top: "detection_eval_2nd_avg_09"
  include {
    phase: TEST
  }
  detection_evaluate_param {
    num_classes: 21
    overlap_threshold: 0.9
    evaluate_difficult_gt: false
    name_size_file: "../../../data/voc/voc07_test_name_size.txt"
  }
}

#-----------------------3rd------------------------
layer {
  name: "cls_prob_3rd"
  type: "Softmax"
  bottom: "cls_pred_3rd"
  top: "cls_prob_3rd"
  softmax_param {
    axis: 1
  }
}
layer {
  name: "frcnn_out_3rd"
  type: "FrcnnOutput"
  bottom: "cls_prob_3rd"
  bottom: "bbox_pred_3rd"
  bottom: "proposals_3rd"
  bottom: "image_sizes"
  top: "frcnn_out_3rd"
  include {
    phase: TEST
  }
  frcnn_output_param {
    conf_thr: 0.01
    iou_thr: 0.3
    nms_type: "IOU"
    max_det_num: 100
  }
  bbox_reg_param {
    cls_aware: false
    bbox_mean: 0 bbox_mean: 0 bbox_mean: 0 bbox_mean: 0
    bbox_std: 0.033 bbox_std: 0.033 bbox_std: 0.067 bbox_std: 0.067
  }
}
layer {
  name: "detection_eval_3rd_05"
  type: "DetectionEvaluate"
  bottom: "frcnn_out_3rd"
  bottom: "gt_boxes"
  bottom: "image_sizes"
  top: "detection_eval_3rd_05"
  include {
    phase: TEST
  }
  detection_evaluate_param {
    num_classes: 21
    overlap_threshold: 0.5
    evaluate_difficult_gt: false
    name_size_file: "../../../data/voc/voc07_test_name_size.txt"
  }
}
layer {
  name: "detection_eval_3rd_06"
  type: "DetectionEvaluate"
  bottom: "frcnn_out_3rd"
  bottom: "gt_boxes"
  bottom: "image_sizes"
  top: "detection_eval_3rd_06"
  include {
    phase: TEST
  }
  detection_evaluate_param {
    num_classes: 21
    overlap_threshold: 0.6
    evaluate_difficult_gt: false
    name_size_file: "../../../data/voc/voc07_test_name_size.txt"
  }
}
layer {
  name: "detection_eval_3rd_07"
  type: "DetectionEvaluate"
  bottom: "frcnn_out_3rd"
  bottom: "gt_boxes"
  bottom: "image_sizes"
  top: "detection_eval_3rd_07"
  include {
    phase: TEST
  }
  detection_evaluate_param {
    num_classes: 21
    overlap_threshold: 0.7
    evaluate_difficult_gt: false
    name_size_file: "../../../data/voc/voc07_test_name_size.txt"
  }
}
layer {
  name: "detection_eval_3rd_08"
  type: "DetectionEvaluate"
  bottom: "frcnn_out_3rd"
  bottom: "gt_boxes"
  bottom: "image_sizes"
  top: "detection_eval_3rd_08"
  include {
    phase: TEST
  }
  detection_evaluate_param {
    num_classes: 21
    overlap_threshold: 0.8
    evaluate_difficult_gt: false
    name_size_file: "../../../data/voc/voc07_test_name_size.txt"
  }
}
layer {
  name: "detection_eval_3rd_09"
  type: "DetectionEvaluate"
  bottom: "frcnn_out_3rd"
  bottom: "gt_boxes"
  bottom: "image_sizes"
  top: "detection_eval_3rd_09"
  include {
    phase: TEST
  }
  detection_evaluate_param {
    num_classes: 21
    overlap_threshold: 0.9
    evaluate_difficult_gt: false
    name_size_file: "../../../data/voc/voc07_test_name_size.txt"
  }
}

#-----------------------3rd-avg------------------------
layer {
  name: "cls_prob_1st_3rd"
  type: "Softmax"
  bottom: "cls_pred_1st_3rd"
  top: "cls_prob_1st_3rd"
  softmax_param {
    axis: 1
  }
}
layer {
  name: "cls_prob_2nd_3rd"
  type: "Softmax"
  bottom: "cls_pred_2nd_3rd"
  top: "cls_prob_2nd_3rd"
  softmax_param {
    axis: 1
  }
}
layer {
  name: "cls_prob_3rd_avg"
  type: "Eltwise"
  bottom: "cls_prob_1st_3rd"
  bottom: "cls_prob_2nd_3rd"
  bottom: "cls_prob_3rd"
  top: "cls_prob_3rd_avg"
  eltwise_param {
    operation: SUM
    coeff: 0.333333333
    coeff: 0.333333333
    coeff: 0.333333333
  }
}
layer {
  name: "frcnn_out_3rd_avg"
  type: "FrcnnOutput"
  bottom: "cls_prob_3rd_avg"
  bottom: "bbox_pred_3rd"
  bottom: "proposals_3rd"
  bottom: "image_sizes"
  top: "frcnn_out_3rd_avg"
  include {
    phase: TEST
  }
  frcnn_output_param {
    conf_thr: 0.01
    iou_thr: 0.3
    nms_type: "IOU"
    max_det_num: 100
  }
  bbox_reg_param {
    cls_aware: false
    bbox_mean: 0 bbox_mean: 0 bbox_mean: 0 bbox_mean: 0
    bbox_std: 0.033 bbox_std: 0.033 bbox_std: 0.067 bbox_std: 0.067
  }
}
layer {
  name: "detection_eval_3rd_avg_05"
  type: "DetectionEvaluate"
  bottom: "frcnn_out_3rd_avg"
  bottom: "gt_boxes"
  bottom: "image_sizes"
  top: "detection_eval_3rd_avg_05"
  include {
    phase: TEST
  }
  detection_evaluate_param {
    num_classes: 21
    overlap_threshold: 0.5
    evaluate_difficult_gt: false
    name_size_file: "../../../data/voc/voc07_test_name_size.txt"
  }
}
layer {
  name: "detection_eval_3rd_avg_06"
  type: "DetectionEvaluate"
  bottom: "frcnn_out_3rd_avg"
  bottom: "gt_boxes"
  bottom: "image_sizes"
  top: "detection_eval_3rd_avg_06"
  include {
    phase: TEST
  }
  detection_evaluate_param {
    num_classes: 21
    overlap_threshold: 0.6
    evaluate_difficult_gt: false
    name_size_file: "../../../data/voc/voc07_test_name_size.txt"
  }
}
layer {
  name: "detection_eval_3rd_avg_07"
  type: "DetectionEvaluate"
  bottom: "frcnn_out_3rd_avg"
  bottom: "gt_boxes"
  bottom: "image_sizes"
  top: "detection_eval_3rd_avg_07"
  include {
    phase: TEST
  }
  detection_evaluate_param {
    num_classes: 21
    overlap_threshold: 0.7
    evaluate_difficult_gt: false
    name_size_file: "../../../data/voc/voc07_test_name_size.txt"
  }
}
layer {
  name: "detection_eval_3rd_avg_08"
  type: "DetectionEvaluate"
  bottom: "frcnn_out_3rd_avg"
  bottom: "gt_boxes"
  bottom: "image_sizes"
  top: "detection_eval_3rd_avg_08"
  include {
    phase: TEST
  }
  detection_evaluate_param {
    num_classes: 21
    overlap_threshold: 0.8
    evaluate_difficult_gt: false
    name_size_file: "../../../data/voc/voc07_test_name_size.txt"
  }
}
layer {
  name: "detection_eval_3rd_avg_09"
  type: "DetectionEvaluate"
  bottom: "frcnn_out_3rd_avg"
  bottom: "gt_boxes"
  bottom: "image_sizes"
  top: "detection_eval_3rd_avg_09"
  include {
    phase: TEST
  }
  detection_evaluate_param {
    num_classes: 21
    overlap_threshold: 0.9
    evaluate_difficult_gt: false
    name_size_file: "../../../data/voc/voc07_test_name_size.txt"
  }
}
